X_train shape: (290, 64, 89, 3)
X_val shape: (73, 64, 89, 3)
X_test shape: (91, 64, 89, 3)
Model: "sequential_1"
_________________________________________________________________
 Layer (type)                Output Shape              Param #   
=================================================================
 rescaling_1 (Rescaling)     (None, 64, 89, 3)         0         
                                                                 
 conv2d_4 (Conv2D)           (None, 64, 89, 2)         56        
                                                                 
 max_pooling2d_3 (MaxPooling  (None, 32, 44, 2)        0         
 2D)                                                             
                                                                 
 conv2d_5 (Conv2D)           (None, 32, 44, 4)         76        
                                                                 
 max_pooling2d_4 (MaxPooling  (None, 16, 22, 4)        0         
 2D)                                                             
                                                                 
 conv2d_6 (Conv2D)           (None, 16, 22, 8)         296       
                                                                 
 max_pooling2d_5 (MaxPooling  (None, 8, 11, 8)         0         
 2D)                                                             
                                                                 
 conv2d_7 (Conv2D)           (None, 8, 11, 16)         1168      
                                                                 
 flatten_1 (Flatten)         (None, 1408)              0         
                                                                 
 dropout_1 (Dropout)         (None, 1408)              0         
                                                                 
 dense_2 (Dense)             (None, 32)                45088     
                                                                 
 dense_3 (Dense)             (None, 3)                 99        
                                                                 
=================================================================
Total params: 46,783
Trainable params: 46,783
Non-trainable params: 0
_________________________________________________________________
None
Epoch 1/100
10/10 [==============================] - 1s 76ms/step - loss: 1.0882 - accuracy: 0.3931 - val_loss: 1.0594 - val_accuracy: 0.6027
…
