X_train shape: (290, 64, 89, 3)
X_val shape: (73, 64, 89, 3)
X_test shape: (91, 64, 89, 3)
Model: "sequential_2"
_________________________________________________________________
 Layer (type)                Output Shape              Param #   
=================================================================
 rescaling_3 (Rescaling)     (None, 64, 89, 3)         0         
                                                                 
 conv2d_9 (Conv2D)           (None, 62, 87, 64)        1792      
                                                                 
 max_pooling2d_7 (MaxPooling  (None, 31, 43, 64)       0         
 2D)                                                             
                                                                 
 conv2d_10 (Conv2D)          (None, 29, 41, 128)       73856     
                                                                 
 max_pooling2d_8 (MaxPooling  (None, 14, 20, 128)      0         
 2D)                                                             
                                                                 
 conv2d_11 (Conv2D)          (None, 14, 20, 256)       295168    
                                                                 
 flatten_2 (Flatten)         (None, 71680)             0         
                                                                 
 dropout_2 (Dropout)         (None, 71680)             0         
                                                                 
 dense_4 (Dense)             (None, 512)               36700672  
                                                                 
 dense_5 (Dense)             (None, 3)                 1539      
                                                                 
=================================================================
Total params: 37,073,027
Trainable params: 37,073,027
Non-trainable params: 0
_________________________________________________________________
None
Epoch 1/100
10/10 [==============================] - 4s 351ms/step - loss: 2.7861 - accuracy: 0.3414 - val_loss: 1.8720 - val_accuracy: 0.3562
…
