X_train shape: (290, 64, 89, 3)
X_val shape: (73, 64, 89, 3)
X_test shape: (91, 64, 89, 3)
Model: "sequential_10"
_________________________________________________________________
 Layer (type)                Output Shape              Param #   
=================================================================
 rescaling_10 (Rescaling)    (None, 64, 89, 3)         0         
                                                                 
 conv2d_26 (Conv2D)          (None, 64, 89, 16)        448       
                                                                 
 max_pooling2d_16 (MaxPoolin  (None, 32, 44, 16)       0         
 g2D)                                                            
                                                                 
 conv2d_27 (Conv2D)          (None, 32, 44, 32)        4640      
                                                                 
 max_pooling2d_17 (MaxPoolin  (None, 16, 22, 32)       0         
 g2D)                                                            
                                                                 
 conv2d_28 (Conv2D)          (None, 16, 22, 64)        18496     
                                                                 
 max_pooling2d_18 (MaxPoolin  (None, 8, 11, 64)        0         
 g2D)                                                            
                                                                 
 conv2d_29 (Conv2D)          (None, 8, 11, 128)        73856     
                                                                 
 flatten_10 (Flatten)        (None, 11264)             0         
                                                                 
 dropout_10 (Dropout)        (None, 11264)             0         
                                                                 
 dense_14 (Dense)            (None, 3)                 33795     
                                                                 
=================================================================
Total params: 131,235
Trainable params: 131,235
Non-trainable params: 0
_________________________________________________________________
None
Epoch 1/100
10/10 [==============================] - 1s 89ms/step - loss: 2.4503 - accuracy: 0.3759 - val_loss: 2.1627 - val_accuracy: 0.3562
…
