X_train shape: (290, 64, 89, 3)
X_val shape: (73, 64, 89, 3)
X_test shape: (91, 64, 89, 3)
Model: "sequential_3"
_________________________________________________________________
 Layer (type)                Output Shape              Param #   
=================================================================
 rescaling_3 (Rescaling)     (None, 64, 89, 3)         0         
                                                                 
 conv2d_10 (Conv2D)          (None, 64, 89, 8)         224       
                                                                 
 max_pooling2d_7 (MaxPooling  (None, 32, 44, 8)        0         
 2D)                                                             
                                                                 
 conv2d_11 (Conv2D)          (None, 32, 44, 16)        1168      
                                                                 
 flatten_3 (Flatten)         (None, 22528)             0         
                                                                 
 dropout_3 (Dropout)         (None, 22528)             0         
                                                                 
 dense_6 (Dense)             (None, 32)                720928    
                                                                 
 dense_7 (Dense)             (None, 3)                 99        
                                                                 
=================================================================
Total params: 722,419
Trainable params: 722,419
Non-trainable params: 0
_________________________________________________________________
None
Epoch 1/100
10/10 [==============================] - 1s 62ms/step - loss: 2.4481 - accuracy: 0.3276 - val_loss: 1.3487 - val_accuracy: 0.3562
…
